model/Dnet.pth (torch, 16047 bytes, 11 tensors)

weight f4 [9, 4, 7, 7]
00000000: 9776 053e 8678 79be bb99 82be 8e7a e2be
00000010: 4d2d acbd 49a7 4fbe 26b0 aabe d6dc 613d
00000020: 2fe0 bd3d db36 babf 0dc4 9dbf d6fd 7dbe
00000030: b21b 113e e066 a0bf 3620 2e3e ac66 aebf
00000040: d5a0 16bc 029a 87be 7ed8 68be c5d0 8bbe
00000050: 7d58 8dbd d645 b5bd 5c3f 00be cb73 4abe
00000060: f365 983e ceeb 353e d63e 2dbc d620 42be
00000070: 240a b8bd 0f77 65be 5dcb 56bf 9f68 84bf
00000080: 011c bd3c 4872 2abd cc23 b0be 5541 6dbe
00000090: 2acb 91bf 4ad6 04bf db0c 713e 1180 473b
000000a0: 5ac4 493c bc7a babe 9258 8fbe 2d31 a2bf
000000b0: d123 99bf 682e 9bbf 67a9 aebc 2cb1 9fbf
000000c0: 438e 91bf 85f5 65bc 7ce3 1fbf 37b1 05be
000000d0: 4499 513d 54fc babe 7ba2 05bd ed03 d6be
000000e0: f31d e8be b176 c3be 28bb fbbf 778f 30be
000000f0: 194b 82be 536c 543e 8469 a73d 2959 0abf
00000100: fc4a 3f3e cc43 c8bf 197d 823e e592 81bd
00000110: 3ca5 253e b26e 09bf ae81 bdbe e0da 7abf
00000120: bedf 493e 9ab0 64bd b4e2 a83e f573 b4be
00000130: 95d7 22be ab1a 0abf 4143 48bf a803 083e
00000140: 25b8 6f3e c282 1dbe 9848 f63e e0c0 efbd
00000150: 9bac 0dbf fbfc de3d 80c8 dc3e 1f97 d83d
00000160: 69d1 0dbf 6271 66be 245d 2f3e b35d c3be
00000170: 595e 92bd 9e9c 8dbf 6237 32bd 0295 b83d
00000180: 21c4 f2bc 3baf 513f a038 a7bf a09d 6dbf
00000190: 3c8f 26be 368f d2be 8708 ecbe d842 2a3d
000001a0: 18ad e63e 3a20 c1bf 8da4 393e 5100 9dbe
000001b0: 39bb ccbe acd2 b5bf 90e4 93be e5d1 3f3d
000001c0: 433a a9bd 2054 203e b403 cfbe 9d13 0fbf
000001d0: 49f4 bebe cb25 69be d2ac ffbd eb10 d03e
000001e0: 308e fdbe fe71 febf 9c0b b43d cb3e dfbe
000001f0: a3b1 d43d 267c 853e c87f a03e 4638 f3be
00000200: 30cc 87be bb6c 38bf 5464 0dc0 4fcf 5f3d
00000210: 17c8 57bd 11b4 a13d a090 0dbf c4dc dabe
00000220: ed0d 20be 6a00 583d 5309 8c3c 86b3 703e
00000230: 73d6 a8bd 7938 b03e 108c 2c3f db24 d13e
00000240: 5a71 d8be d665 3dbe 7b67 b8be eec0 31bd
00000250: 0775 c23e 7124 b93d 1c1b b43e 8bff 8d3e
00000260: c5ed 2e3f 82e9 083f 8dc4 8c3e 4ee1 373e
00000270: 7a3c f43e 4c80 19bf 3adc 6abf 5c8f 173e
00000280: 1d9f 473f 94cc 8dbe c169 6b3b b797 8dbe
00000290: e853 7bbf 391d 84bf fc1a 44bf af04 b43e
000002a0: 5fa8 a23c ad6d a33d 6c5d 97bf 3eca 66bf
000002b0: df01 93bf 3d4b e23d 2230 5c3e 904e c33b
000002c0: f0ea 5abf 64f0 b1bf 14f6 5fbf 02f9 03bf
000002d0: 4a40 c9bd 11fd 123f 77a9 3a3e 9f32 94bf
000002e0: 044f cbbf 9cce a2bf 7132 1ebf 6797 f5be
000002f0: a5d1 043f e4e8 393f 0b6f 4b3f d9e1 773c
00000300: 431b 09bf 4366 a43e a1c7 ae3e edef 1c3f
00000310: e8e9 f63d 36e7 bcbe ef47 36be 0572 94be
00000320: 74aa 3bbd 0d4e dfbe fb35 6dbe 7a4e a8bc
00000330: e166 d13d 1b96 babf 7782 a7bf 6d21 8dbe
00000340: 9965 ddbd d687 a6bf 17ef a33e 0b14 b4bf
00000350: f7ad c6b9 3ce8 f8be 75b5 3cbe a25c 99be
00000360: 9786 433d 46ff 80bd baa9 323d 1859 85be
00000370: 531f 9a3e d117 043e 96ff a6bc 9cc5 eebd
00000380: f0f1 84be edf8 5dbe 96e6 58bf a073 6cbf
00000390: 95b7 c8ba db2e 48bc 0727 a7be 219e 7dbe
000003a0: 0be9 8abf b93c 21bf 9673 a03d 4e11 d4bd
000003b0: 8327 a13c 0119 ddbe b322 8dbe c778 9dbf
000003c0: 77c1 a5bf 991f 98bf cb63 87bd de6f 9fbf
000003d0: 57c6 91bf 2b3b 813c 5e5d 23bf f3f3 2fbe
000003e0: 813b b43c 201c cbbe cf27 efbd e5bb 8ebe
000003f0: fd67 e3be 2f93 b3be cfc3 02c0 dfa1 7ebd
0.1303352 -0.24362382 -0.25507912 -0.44234127 -0.08407078 -0.20278658 -0.33337516 0.055142246
0.09271275 -1.454799 -1.2325455 -0.24803862 0.14170721 -1.2531395 0.17004475 -1.3625083
-0.009193619 -0.26484686 -0.22738835 -0.27307716 -0.069016434 -0.08851211 -0.1252417 -0.19770734
0.2976528 0.17765734 -0.010574063 -0.18957838 -0.08986309 -0.22408698 -0.8390406 -1.0344428
0.023084642 -0.041612893 -0.3440231 -0.23169453 -1.1390126 -0.5188948 0.2354006 0.0030441324
0.01231488 -0.36421764 -0.2799726 -1.2671257 -1.1964055 -1.2123537 -0.021321012 -1.2475944
-1.137154 -0.014035587 -0.6245649 -0.13055883 0.051171556 -0.36520636 -0.032625657 -0.4179987
-0.4533535 -0.38176492 -1.966649 -0.17242227 -0.2544792 0.20744447 0.081744224 -0.540423
0.18680948 -1.564569 0.25486067 -0.06326846 0.16176313 -0.5368453 -0.37013 -0.97990227
0.19714257 -0.055832483 0.3298546 -0.35244718 -0.1590255 -0.5394694 -0.7822762 0.13282645
0.2341009 -0.15381911 0.4810226 -0.1170671 -0.553415 0.10888096 0.4312172 0.10575699
-0.5539766 -0.2250419 0.17125374 -0.38157424 -0.07146902 -1.1063421 -0.04350985 0.09012796
-0.029634537 0.81908005 -1.3064156 -0.9281864 -0.16265577 -0.41124886 -0.46100256 0.041567653
0.45053935 -1.508796 0.18129177 -0.30664304 -0.3998659 -1.4204917 -0.28885317 0.04683103
-0.08263066 0.15657091 -0.40432513 -0.558893 -0.3729575 -0.22768323 -0.12484135 0.40637907
-0.49522543 -1.9878538 0.08791277 -0.43602595 0.10385444 0.2607128 0.3134749 -0.4750387
-0.2652297 -0.7204091 -2.2092485 0.054641064 -0.052681055 0.07895673 -0.55298805 -0.42746556
-0.15630312 0.05273477 0.01709429 0.23505983 -0.08244028 0.34418085 0.6740122 0.4084843
-0.4227398 -0.18495879 -0.3601645 -0.043396883 0.3797991 0.09040154 0.35176933 0.27734026
0.6833156 0.53481305 0.27493706 0.1795704 0.4770239 -0.5996139 -0.9174229 0.14800781
0.7797716 -0.27695143 0.0035921189 -0.27654812 -0.98174906 -1.0321418 -0.76603675 0.35159823
0.019855676 0.07979903 -1.1825385 -0.9015235 -1.1484946 0.11049507 0.21502736 0.005960293
-0.85514736 -1.3901486 -0.8748486 -0.5155183 -0.09826715 0.574174 0.18228708 -1.1577948
-1.5883489 -1.2719302 -0.6179572 -0.47967073 0.5188239 0.7262099 0.79466313 0.01512953
-0.53557223 0.3210927 0.3413668 0.613036 0.12056333 -0.3689515 -0.17800878 -0.2899324
-0.045816854 -0.43614236 -0.23165123 -0.020545233 0.10224701 -1.4577059 -1.308669 -0.27564564
-0.10810394 -1.3010204 0.3201835 -1.4068617 -0.00037895117 -0.4861468 -0.18428595 -0.29953486
0.047735777 -0.062986895 0.043618895 -0.26044536 0.30102023 0.1289971 -0.020385545 -0.11658785
-0.25965834 -0.21676989 -0.84726846 -0.9236393 -0.0015313501 -0.012218202 -0.32646963 -0.24767353
-1.0852369 -0.6298328 0.07834546 -0.10354863 0.019672161 -0.4318314 -0.27565536 -1.2302483
-1.2949666 -1.1884643 -0.06610831 -1.2456014 -1.1388654 0.015775284 -0.6381434 -0.17182903
0.02200103 -0.39669895 -0.11677515 -0.27877727 -0.44415274 -0.3507323 -2.0432012 -0.06216609

weight f4 [4]
00000000: 50ac 8e3f 2636 653f 9dcd 063f 4aad 083f
1.1146336 0.8953575 0.5265749 0.5338942

bias f4 [4]
00000000: 99e6 80be 3bb4 91be f800 ba3d fd34 933c
-0.25175932 -0.28457817 0.09082216 0.017969603

running_mean f4 [4]
00000000: 1ff4 3fc0 8985 27c0 dd67 fbbf 123c c1bf
-2.999275 -2.6175253 -1.9641072 -1.5096457

running_var f4 [4]
00000000: d9d7 a441 a62d f041 237d c441 5188 9e41
20.605394 30.02229 24.561102 19.81656

weight f4 [4, 2, 4, 4]
00000000: bc6b 05be bfe2 21bf 6e57 083f 4393 e73d
00000010: 6424 01c0 8a9d aa3e 8ad6 68be 6cf6 a9be
00000020: fcd6 833d 1604 2d3e befa 9bbd ae75 cb3d
00000030: 07c5 863f 4b12 80bc f08b 94bf dd83 0c3d
00000040: 0ec8 b1bf 5a12 b1be cbec 7ebb 8c64 e8bd
00000050: cb38 7dbe ce58 c33e 04ef 6a3e 4447 e93e
00000060: a459 a8bf c25f 723e c6b1 8b3f 507b 653e
00000070: a7f4 8bbe bc75 563f a16e 063f 0df4 243e
00000080: ab7e 8ebe 1315 a5be be5d da3e b122 8ebe
00000090: b5ab d5be ed0e 94bc 8793 6abc edc8 ebbe
000000a0: 19c1 e33e 7713 e13e 614c bf3e 63bb fcbd
000000b0: 46fd 40bf bcd6 ce3e f619 f93d dec5 5a3e
000000c0: 0794 d2be 9601 a9be d9ad 96be b5a5 8cbe
000000d0: 9f2c e4bd ba74 3d3e bcc8 5bbe a9e5 1a3d
000000e0: cecc 15bf 26a0 bebe 087b f93d 35b7 f2be
000000f0: f693 51be a39a 00c0 93f4 4cbe 7075 2dc0
00000100: d545 44bf 8585 66be a84e 91bd 0b66 b4bf
00000110: b604 113f befa 4fbe b6ae 9ebe fa3c 093e
00000120: f919 57be 7112 7c3e 4b17 1f3f 732a 623f
00000130: d03d 6b3d ac64 a03e 297f 173e edae 413d
00000140: 36f3 783f 2917 d6bd 55b8 48bf 5ca9 4bbd
00000150: 152d 08bf d7d9 02bf ea1f 913e 9eaa 3fbe
00000160: 440c 1ebe 4fc1 7c3e 1522 debe b46e 013e
00000170: caeb 073e bc8b 7a3e 5faa 293d 1d44 70bf
00000180: 1e8e b23b c27e 94be 6719 273f 2d35 84bf
00000190: 7384 183d 8e35 2e3f d4e8 bc3e 5242 f13e
000001a0: 5400 ef3e b008 59bb 3c83 8c3e 8b91 4fbf
000001b0: ab1a e8be 884e 89be 3322 613e 802c c43e
000001c0: 756c c6be 4920 713e 0fd7 22bf 6743 2d3e
000001d0: f4ec a03e 53e4 bbbe 6759 103f cf73 f33e
000001e0: af28 5cbe e165 033f 894f 02be 4208 f8bc
000001f0: db9a 3e3d ba27 35be 16e8 9bbe 66e4 72bf
-0.13029379 -0.6323661 0.5325841 0.11307385 -2.017846 0.33323318 -0.2273809 -0.33195817
0.064374894 0.1689609 -0.07616185 0.09934555 1.0528878 -0.015633723 -1.1605206 0.034305442
-1.3889177 -0.34584314 -0.0038898464 -0.11347303 -0.24728696 0.3815369 0.2294274 0.45562184
-1.3152356 0.23669341 1.0913627 0.22410321 -0.27335092 0.837734 0.52512556 0.16108723
-0.27831015 -0.3224264 0.42649645 -0.27760842 -0.41732565 -0.018073523 -0.0143174 -0.46051732
0.4448326 0.43960163 0.3736296 -0.12340429 -0.75386465 0.40398204 0.12163155 0.21364543
-0.4112856 -0.33009022 -0.2942951 -0.27470174 -0.11141323 0.18501559 -0.21463293 0.037816677
-0.5851563 -0.3723156 0.121816695 -0.474054 -0.20466599 -2.0094383 -0.20015173 -2.7102928
-0.76669055 -0.22511871 -0.070950806 -1.4093641 0.56647813 -0.20310494 -0.3099267 0.13402167
-0.21006002 0.2461641 0.6214492 0.8834602 0.057431996 0.31326807 0.14794602 0.047285963
0.9724611 -0.10453636 -0.7840627 -0.04972206 -0.5319379 -0.5111365 0.2834466 -0.18717429
-0.15434366 0.24683116 -0.43385378 0.12639886 0.1327354 0.24467367 0.041422244 -0.9385393
0.0054490706 -0.2900296 0.65273136 -1.0328728 0.03723569 0.6805047 0.36896384 0.4712091
0.46679938 -0.003311675 0.27443874 -0.81081456 -0.45332846 -0.26817727 0.21985702 0.383152
-0.3875462 0.23547472 -0.63609403 0.16920243 0.3143078 -0.36697635 0.5638642 0.47549292
-0.21499895 0.5132733 -0.12725653 -0.030277375 0.0465344 -0.17690936 -0.30450505 -0.9487976

weight f4 [2]
00000000: 385a 573f 2f7e 883f
0.8412204 1.0663508

bias f4 [2]
00000000: 16ec 9abd c0d4 5a3d
-0.07564561 0.05342555

running_mean f4 [2]
00000000: 7913 e3bc ef25 16be
-0.027719246 -0.14662908

running_var f4 [2]
00000000: 9ef1 c33e c394 933e
0.38270277 0.28824434

weight f4 [2, 1, 4, 4]
00000000: 6cf0 74bd dae4 afbe a447 89be cf80 5dbd
00000010: a5ad 9ebe 26e3 29bf c28a 10bf 3948 a8be
00000020: 2a0f d5be e817 37bf d122 3ebf e852 dfbe
00000030: dc4b 0abe 2ba4 d9be 41b1 c4be e0c1 c6bd
00000040: d16e 3fbe 7cea bebe 3905 b8be 0cb5 34be
00000050: a49e d0be f2ea 1dbf c0e9 12bf deda babe
00000060: fb86 d8be 8d72 22bf 6a2f 23bf a157 bbbe
00000070: 36fc 7fbe 0537 d9be 9186 cdbe feec 26be
-0.059799597 -0.34354287 -0.2681247 -0.05407792 -0.30991855 -0.66362226 -0.5646173 -0.32867602
-0.41613132 -0.71520853 -0.74271876 -0.4361794 -0.135055 -0.42508063 -0.38416484 -0.097049475
-0.18694617 -0.37288272 -0.35941485 -0.17647189 -0.40746033 -0.61686623 -0.57387924 -0.36495107
-0.42290482 -0.6345604 -0.63744223 -0.36590293 -0.24998555 -0.4242479 -0.4014173 -0.16301343
