model/Enet.pth (torch, 15215 bytes, 15 tensors)

weight f4 [2, 1, 4, 4]
00000000: eba0 0bbd 0b13 4dbd 60f2 61bc 30f5 38bc
00000010: 70a7 02bc 359f e1bc cb00 4e39 49f7 b13b
00000020: 95bc 9bbc ecc9 80bb e57e 7c3b 4f0f e33b
00000030: f4bb f1bc 7c34 17bd 8c7c 79bc ecf9 b93b
00000040: 93d3 4cbb 1fd3 3b3c 8ebe 153c af25 ca3a
00000050: aac8 e5bb 3790 663c 2742 f3bb 75b9 93bc
00000060: 98c8 61bd a784 3fbd 6836 7abc e42f 20bc
00000070: e145 74bc f3ea 933b e06d c63b 40f2 133b
-0.03408901 -0.05006699 -0.013790697 -0.011288926 -0.0079744905 -0.027541736 0.00019645986 0.00543109
-0.019010821 -0.003930321 0.0038527783 0.006929315 -0.029508568 -0.036915287 -0.015227448 0.005675545
-0.0031254038 0.011463909 0.00913967 0.0015422608 -0.0070124464 0.014072469 -0.0074236575 -0.018032769
-0.05512294 -0.046757367 -0.0152717605 -0.009777043 -0.014909239 0.004514092 0.0060555786 0.0022574812

weight f4 [2]
00000000: 9b6e 763f 5004 843f
0.9626252 1.0313816

bias f4 [2]
00000000: 96cf 0ebc 0b09 2a3d
-0.0087164845 0.04151253

running_mean f4 [2]
00000000: b487 05bd 134c 96bc
-0.03260012 -0.018346822

running_var f4 [2]
00000000: d835 5d3b 8018 b73a
0.0033754017 0.0013969094

weight f4 [4, 2, 4, 4]
00000000: 0e44 8a3b ca11 203c 5c86 14bc 1ed8 353a
00000010: dafc 633c 6651 a5bc 82d8 90bc 8c64 e6bb
00000020: 5bb7 823d a87c 07bc a635 08bc fcac 2ebc
00000030: 038c 623c 3dad b93b de59 8bbc 2be7 d73a
00000040: 2d97 c83c 7bf7 ce3a 34d1 36bc 2c98 fabc
00000050: 380b 373c 6273 393b b326 ccbc 7cb8 6abc
00000060: 641a 1cbc 435a 3abd ca2d 08bd 4c92 87bc
00000070: 73bf 833c b312 71bb c90e 9ebc 7724 9fbc
00000080: ef19 96bc ac0c a1bb 16f0 213c 3ea5 9c3c
00000090: ad42 23bb 5345 01bc df26 07bc 246e 313c
000000a0: 8293 503c 16b0 873b 85f0 fe3b 5104 ddbc
000000b0: ec58 8cbb d07d 38bd 76f1 debc 0f6f e8bc
000000c0: eabf 843c 8102 79bb d10d 913b a6e8 eaba
000000d0: 76a7 183d e9d2 9a3c 2b03 b63c dc3d 233b
000000e0: ec4c 003d 5b5c e03c 5041 e6bb d6a5 9339
000000f0: 029e 2dbc f7ac 9ebc 839d 1cbc cba6 a5bc
00000100: 72a9 b83a 45c8 01bb 4503 013d 22fc f7bc
00000110: 13f3 87ba 017f 343b 67f1 acbb 6829 15ba
00000120: 1e0b 5dbc 4452 873c 2814 163d 41bb 263d
00000130: c5e1 1ebb bc86 f83c e1ab 7f3d fe13 b63c
00000140: 6bc0 a63c 1764 ba3c a401 25bc 7c1e 9bbb
00000150: bdfe 1ebb e545 dfbc 9218 b13b 2533 a43c
00000160: e677 87bc 44e8 eabc e21d 87bc f2f6 4cbb
00000170: 7d2b 8dbd ef3b 1abd 6bd8 e7bb dc07 abba
00000180: 20f7 febb afae 96ba db26 8fbd 005b 22bd
00000190: 61e1 b53b bf62 cf3c 204e 2dbb ebf8 52ba
000001a0: fef8 793b 8c32 373b 2899 013c 2870 14bd
000001b0: 2eab e6bc fe44 e9bc 2cdc 46bc b2f5 383a
000001c0: 65bb 3f3a db7e 07bd fd96 50bc 4976 f5bb
000001d0: 109a c93b e535 c7bb f5a4 eb3b 4ba2 2a3d
000001e0: 3d26 1dbd 53ab 843c ae36 cd3c 80ba d43c
000001f0: f7ea 4fbd 8051 11bd 5765 4d3c 9292 8e3c
0.0042195385 0.009769866 -0.009065237 0.0006936806 0.013915265 -0.020180415 -0.017681364 -0.007031029
0.063826285 -0.008269466 -0.008313572 -0.01066136 0.013827327 0.0056664036 -0.017010625 0.0016472092
0.024486149 0.0015790308 -0.011158276 -0.03059014 0.011172108 0.0028297533 -0.024920797 -0.014326211
-0.009527776 -0.045496237 -0.033246793 -0.016549252 0.016082501 -0.0036784827 -0.01929416 -0.019426567
-0.018322913 -0.0049148407 0.009883901 0.019121762 -0.0024911568 -0.007890063 -0.008249014 0.010829482
0.012730481 0.004140864 0.007780137 -0.026979597 -0.0042830613 -0.04504186 -0.027214747 -0.02837327
0.016204793 -0.0037995877 0.004426696 -0.0017922118 0.03726908 0.018899398 0.022218307 0.0024908697
0.03132336 0.027387789 -0.007026829 0.00028161582 -0.010596754 -0.019369585 -0.009559038 -0.020221135
0.0014088585 -0.0019803208 0.03149726 -0.030271593 -0.0010372124 0.002754152 -0.005277801 -0.0005690069
-0.01349142 0.01651872 0.036640316 0.040705923 -0.0024243456 0.030337684 0.062419776 0.02222633
0.020355424 0.022752805 -0.010071192 -0.0047338586 -0.0024260723 -0.027255008 0.0054045403 0.020043919
-0.016536664 -0.028675206 -0.016493741 -0.003127512 -0.0689306 -0.037654813 -0.0070753596 -0.0013048607
-0.0077809244 -0.0011496152 -0.06989833 -0.039637566 0.005550549 0.02531564 -0.0026444271 -0.0008047956
0.0038142796 0.0027953712 0.00791005 -0.036239773 -0.028157797 -0.02847528 -0.012137454 0.00070556544
0.0007313996 -0.033079963 -0.012731311 -0.0074909073 0.006152399 -0.006079423 0.0071912953 0.04165868
-0.038366545 0.016194975 0.025050487 0.025967836 -0.05076119 -0.035478115 0.012536368 0.017403875

weight f4 [4]
00000000: 665e 7e3f 461e 763f 5c41 833f 8fa3 823f
0.9936279 0.96139944 1.0254321 1.0206164

bias f4 [4]
00000000: e321 163c aa3f 923c 1e55 1cbd 6022 0ebd
0.009163353 0.017852623 -0.03816711 -0.03470075

running_mean f4 [4]
00000000: 8539 82bd c708 ae3b 0659 ce3b 314f 4ebd
-0.06358627 0.005311105 0.0062972335 -0.05036849

running_var f4 [4]
00000000: b318 513b aee2 e53a e876 c73a a1cc 213b
0.003190559 0.0017538869 0.0015217932 0.0024688619

weight f4 [8, 4, 7, 7]
00000000: acf3 8bbc 8c3c b3bc 855c 4ebd f131 f6bc
00000010: 5dc8 95bc 2fde ccbc b7e0 a5bc 9425 8c3b
00000020: 6257 d1bb 5abf ae3a 18f7 b03b 2a39 fb3c
00000030: a51c 033d 74af 96bc bede cebc cd71 abbc
00000040: 540f bcbc 31c8 b5bb 0f1f 0c3c 6ea0 1e3d
00000050: 64ee 43bb 30d2 81bd e0f3 573c 770d 83bb
00000060: ee1c 9b3c 6caa 143c fbfb 4e3c 621b 3f3b
00000070: a4c7 33bc c31e 42bb 6bb2 77bc 6dea 88bb
00000080: b883 9d3b 9eb0 fa3a ac01 63bb f571 343d
00000090: 1ebf 3b3c ad44 fa3b 5ca7 84bc 4e1e 9ebc
000000a0: 745b c7bc 242d a5b9 921e 823c e49d eebc
000000b0: 4a1b 89bb e4ea 09bd 2120 3cbd f538 bcbc
000000c0: 8542 643b 6101 003d 6b39 9bbc 9d34 33bc
000000d0: 9bc1 a6bc e139 0dbd 69d9 c1bc 2abc 263c
000000e0: f879 593c e1b8 cabb 6675 ea3b 579b f8bc
000000f0: 2ea2 e23b 5047 95bc eff6 393c ae37 02bd
00000100: 6dcc b83b 1874 0f3d aa71 363d 17a4 f2bc
00000110: a94e c2bc fa9c a7bb 5643 083d 1d51 b93b
00000120: 2798 d23c aa57 b3bb 720a 8e3b 514a 003d
00000130: 5e19 43bc 532f a73c edc8 09bc f6a2 673c
00000140: 1d12 983c 160b ff3b 7105 e13c 97b3 85bb
00000150: 7cb9 d6bc 5f67 283c 3f50 043c ae3c 8a3c
00000160: d976 233c 2611 063d feae 423c 79db 32bd
00000170: a92b 82bc c7d7 94bb 5bdf dd3b 5503 b33b
00000180: 8e87 5c3c b592 b33c f4f5 71bc 0431 053c
00000190: cc11 06bd ae88 e3bb 6b0a d73c 8b3f b63c
000001a0: 0b0e f839 4fbb 283c 0085 febb 62ce e43c
000001b0: c778 6e3d 1dcc 593d 8d7c 3a3d aca3 cc3b
000001c0: 7503 983c 8ff5 153c 0b1e 4dbc 5574 373c
000001d0: 0dd2 253d f362 c63a cdca 4fbc 1544 6c3c
000001e0: 58bd 5fbc 3eee 70bc 6b04 663d eb77 e73b
000001f0: cb8b c9bc edde 2cbc 6ac8 53bc 7535 2c3c
00000200: 7638 efba 2155 f53b e373 c0bb f55b 33bc
00000210: d961 343c f6e8 183c 4a92 e83b 4e7c 2fbc
00000220: a8e4 48bd 5951 e7bc 5c3b 5abc 7cc5 13bc
00000230: e329 f63c 9cef 463c f74d 9b3c b276 2c3d
00000240: 2b2f 8d3c 9f50 f9bb 6210 6dbc ff75 edbc
00000250: 45fd 933c 61c5 a33c 9b48 2f3c e843 d03c
00000260: 5cf3 9f3c b522 cd3b 58ab 89bc 6db0 013c
00000270: f695 90bc 8bba 44bd 8604 c7bc ed69 b2bb
00000280: e114 d4bb d3d8 c23a 6b9d b3bb 1858 d0bc
00000290: 65e7 ebbc ac0f 08bd 1902 ce3c b528 aa3b
000002a0: b81c b73b b6bd 22bb 6759 9a3c b1f1 e9bc
000002b0: d5e9 a4bc fe7e 843c c615 793c 6c1c 1aba
000002c0: d3ea 35bc 54e9 11bc 8b27 0dbd e267 c3ba
000002d0: f27c ca3b 4ddd b93b 7b49 933c c2a0 42bb
000002e0: 4f07 13bd 24dc fabc 71d3 2a3c b30a 9b3b
000002f0: a198 16bd eeb1 083c 5c16 923c cf1e 293c
00000300: ce32 37bc 2646 8b3c 2701 9cbb 30c2 a93b
00000310: 2511 c73c 7d3c 55bc 4684 31bd 9207 ffbc
00000320: a026 8cbc 0477 31bd 4e53 35bc 7b9c 0bbc
00000330: b7ac bcbb 6077 cdbb 52fb 0e3c 29fd 033d
00000340: f522 113d 448e 84bc cc91 59bc 7334 8cbc
00000350: 6bd0 acbc e3c4 b8bb c662 e53b 1d98 083d
00000360: 3f93 17bc c91b 403b 3f4f 833b 3d8d efb9
00000370: 7a34 9d3c 0542 013c 659d cf3c 7007 13bc
00000380: f16b 26b9 16ec f3b5 fc50 57bc ad3a 2dbb
00000390: 9b67 c53b a3a9 b2bb 5260 423c bb1d ab3c
000003a0: f63f 423c f32d b53b 99e6 7ebc e52e 5bbc
000003b0: 34b9 8abc ea72 60bc 5907 6abc d05d 43bc
000003c0: 9fc6 de3a ec3d e0bc d1f4 2fbd e20a d7bc
000003d0: 4d08 9bbb 9157 73bc 5ec6 cabc f909 d0bb
000003e0: e214 e5bc cf1d 05bd 8e50 d6bc 3d00 6aba
000003f0: 84e8 b03a 3613 89bb 2ec7 bf3b ad18 05bd
-0.017083965 -0.021879457 -0.050381202 -0.03005311 -0.018284017 -0.02500829 -0.020248754 0.0042769406
-0.0063885907 0.0013332174 0.0054005496 0.030666906 0.03200974 -0.01839421 -0.025252696 -0.020928288
-0.022956528 -0.0055475463 0.008552327 0.038727216 -0.002989673 -0.06338918 0.013180703 -0.003999408
0.018934693 0.009073835 0.012633319 0.0029160609 -0.010972891 -0.0029620386 -0.015118222 -0.0041783364
0.004806962 0.0019126122 -0.0034638448 0.04405399 0.01145914 0.0076375813 -0.016193084 -0.01930156
-0.0243356 -0.00031504885 0.015883718 -0.029128022 -0.0041841613 -0.033671275 -0.045929078 -0.022976378
0.0034829688 0.031251315 -0.018948277 -0.010937837 -0.02035599 -0.034479026 -0.02366324 0.010176698
0.0132737085 -0.00618659 0.0071551083 -0.03034751 0.006916306 -0.018222481 0.011350377 -0.03179138
0.005639604 0.035022825 0.044541992 -0.02961926 -0.023719149 -0.0051151486 0.03326734 0.0056554214
0.025707318 -0.005473097 0.0043347413 0.031320874 -0.0119079035 0.020408308 -0.008409721 0.014137974
0.018563325 0.007783304 0.027468415 -0.0040802467 -0.026211493 0.010278552 0.008075773 0.016874637
0.009977066 0.032731198 0.011882542 -0.043666337 -0.01588996 -0.004542324 0.006771011 0.0054630437
0.013460053 0.021920541 -0.014768112 0.008129362 -0.032731816 -0.0069437837 0.026250085 0.022247097
0.0004731271 0.010298564 -0.0077673197 0.027930442 0.05822065 0.053173173 0.045528937 0.006245097
0.018556336 0.009152784 -0.01251937 0.011197169 0.040483523 0.001513569 -0.012682629 0.014420529
-0.013655983 -0.014705239 0.056156557 0.007063856 -0.024602791 -0.0105511965 -0.0129262 0.010510792
-0.001825108 0.007486955 -0.00587319 -0.010947217 0.011009657 0.009332886 0.007097517 -0.010710789
-0.04904619 -0.028237032 -0.013319816 -0.009019252 0.03004927 0.012142088 0.018958075 0.042105384
0.017234406 -0.0076084877 -0.014469238 -0.028986929 0.018065104 0.019991579 0.010698463 0.025423005
0.019525222 0.006260241 -0.016805336 0.007915598 -0.017649632 -0.048029464 -0.02429415 -0.0054447562
-0.0064722155 0.0014865644 -0.005481412 -0.025432631 -0.028796861 -0.03321807 0.025147485 0.005192841
0.0055881403 -0.0024832315 0.018841458 -0.02855763 -0.020131031 0.016173836 0.015202945 -0.0005878869
-0.01110335 -0.008905727 -0.03446154 -0.0014908279 0.0061794454 0.005672133 0.017979374 -0.002969787
-0.035895642 -0.03062255 0.010426388 0.0047315 -0.036766652 0.008343203 0.017832927 0.010322287
-0.011181546 0.017001223 -0.0047608796 0.0051806197 0.024300167 -0.01301491 -0.043339036 -0.03113154
-0.017108262 -0.043326393 -0.011067225 -0.008521195 -0.005757894 -0.006270334 0.008726912 0.032223854
0.03543373 -0.016181119 -0.01327939 -0.017114853 -0.021095475 -0.005638705 0.0070003 0.03334819
-0.009251415 0.0029313436 0.0040072496 -0.00045690863 0.019190062 0.007889275 0.025343606 -0.008973941
-0.00015871205 -1.8173621e-06 -0.013141867 -0.0026432679 0.0060243136 -0.005452351 0.011863785 0.0208882
0.01185607 0.005529159 -0.015557908 -0.01337788 -0.016934015 -0.013699273 -0.014283978 -0.011924222
0.001699645 -0.027373277 -0.042958084 -0.026250307 -0.004731214 -0.01485242 -0.024752792 -0.006348845
-0.02796406 -0.03249913 -0.026161458 -0.0008926427 0.001349703 -0.0041831983 0.0058526015 -0.032494236

weight f4 [8]
00000000: 096b 0440 02db 0440 2ed8 0340 9555 0740
00000010: 0087 0440 f9b4 0440 053f 0640 010f 0440
2.069033 2.0758672 2.0600696 2.1145985 2.0707397 2.0735457 2.0975964 2.0634158

bias f4 [8]
00000000: aab2 12bd 4dd4 1ebd 6450 09bd c99f 4fbd
00000010: 2ecd c2bc a028 53bd 660c 62bc c255 a2bc
-0.03581492 -0.038776685 -0.033523932 -0.050689492 -0.023779478 -0.051552415 -0.013796901 -0.019816283

running_mean f4 [8]
00000000: 2973 f63d 99bf ad3d 766d 813d 04e2 573d
00000010: 6afd e33d 2750 4c3d 331e 043e f360 673d
0.12033684 0.0848381 0.06319706 0.05270578 0.11132319 0.049881127 0.12902145 0.056488942

running_var f4 [8]
00000000: 8c9f cc3c 6d99 b73c 945f e03c b366 ce3c
00000010: 54e2 ce3c ab5b b93c 798d 033d 018e e53c
0.024978422 0.022412026 0.027389325 0.025195455 0.025254406 0.022626719 0.03211734 0.028021814
